notebooks/best_model.pth (torch, 67042 bytes, 22 tensors)

conv1.att_src f4 [1, 2, 8]
0	0x3f8f9e3a	1.1220162
1	0x3fa01956	1.2507732
2	0x3ed37763	0.41302022
3	0x3f2c7906	0.6737217
4	0x3f6c49d0	0.9230013
5	0x3cfcad40	0.03084433
6	0x3f26b133	0.65114135
7	0x3efb27c5	0.4905378
8	0xbec1615c	-0.37769592
9	0x3f46e583	0.7769396
10	0xbf4728fd	-0.7779692
11	0xbf29f69e	-0.6639193
12	0x3ed56f54	0.416865
13	0xbf624f6a	-0.88402426
14	0x3f2ce034	0.67529607
15	0xbf87cebb	-1.0609964

conv1.att_dst f4 [1, 2, 8]
0	0xbe6a145f	-0.22859333
1	0xbf442f6c	-0.7663486
2	0x3eb2f1b9	0.34950045
3	0x3dc41d66	0.0957592
4	0xbc082d19	-0.008311533
5	0xbd3236c9	-0.04350928
6	0x3ebdfc01	0.37106326
7	0xbdfdfbab	-0.124015175
8	0xbe426048	-0.18982041
9	0xbf869d84	-1.051682
10	0xbf63f745	-0.8904918
11	0x3f816ede	1.0111959
12	0x3eaa7607	0.33293173
13	0x3ef6f575	0.48234144
14	0x3f11ba1a	0.56924593
15	0x3f6b10d9	0.9182258

conv1.att_edge f4 [1, 2, 8]
0	0x3ead23a0	0.33816242
1	0x3e5bee63	0.21477656
2	0x3f062918	0.52406454
3	0xbf41e03f	-0.757328
4	0xbf40a77c	-0.7525556
5	0x3996aff9	0.0002874134
6	0xbd55034d	-0.0520051
7	0x3de72780	0.11286831
8	0xbe9dcc41	-0.30819896
9	0x3f3c2f50	0.73509693
10	0x3f423db1	0.75875384
11	0xbe6f596e	-0.23373958
12	0xbf0f14e0	-0.5589123
13	0x3ee0e16a	0.43921977
14	0x3f1f1a49	0.6214948
15	0x3f2ab12f	0.6667661

conv1.bias f4 [16]
0	0x3cabe665	0.020983884
1	0x3d812e5a	0.06307669
2	0x3d15e961	0.03659952
3	0x00000000	0.0
4	0xbbfe6561	-0.00776355
5	0x00000000	0.0
6	0x3d1a9147	0.037736204
7	0x00000000	0.0
8	0x3d2da394	0.04239233
9	0x00000000	0.0
10	0x00000000	0.0
11	0x3c9c00f9	0.019043433
12	0x00000000	0.0
13	0xbcb0721f	-0.021538792
14	0x3d896c4a	0.067101076
15	0x3c22a79f	0.009927659

conv1.lin.weight f4 [16, 3]
0	0x3efce879	0.49396113
1	0xbeda955b	-0.42692074
2	0xbeb86c96	-0.36020344
3	0x3e1c1b76	0.1524485
4	0xbeabd411	-0.3356023
5	0xbecc6e5e	-0.39927953
6	0x3ef8b459	0.48575094
7	0x3eeec731	0.46636346
8	0xbeae03ef	-0.33987376
9	0xbe922451	-0.28543332
10	0x3e622dd5	0.22087796
11	0xbf5b4b75	-0.85662013
12	0xbdeb905b	-0.11502143
13	0x3eb8a8c2	0.36066252
14	0xbf5883fe	-0.84576404
15	0xbe934f4b	-0.28771433
16	0xbe985106	-0.29749316
17	0xbe35b90a	-0.17746368
18	0x3ee5dec7	0.44896528
19	0xbf205c5e	-0.6264094
20	0xbec9248d	-0.392857
21	0xbdd3140a	-0.103065565
22	0xbf2b1f57	-0.66844696
23	0xbf8d1fd1	-1.1025335
24	0x3f0e224c	0.5552108
25	0x3de1256f	0.10993468
26	0x3ecaa656	0.3958003
27	0xbf7cbaf7	-0.98722786
28	0xbf2279f7	-0.63467354
29	0x3eb53147	0.35389158
30	0xbe131dfb	-0.14366905
31	0x3ea3127a	0.31850034
32	0xbf421194	-0.7580807
33	0xb9dbaf01	-0.00041901323
34	0x3f297ab7	0.66202873
35	0xbe880069	-0.26562813
36	0xbf0a84a7	-0.5410866
37	0xbe8e2985	-0.27766052
38	0x3d82d117	0.06387537
39	0x3ebce4f8	0.3689344
40	0x3ed15d00	0.40891266
41	0x3c8d8190	0.017273694
42	0x3e9c8299	0.30568388
43	0xbeae8b92	-0.3409086
44	0xbeb516e0	-0.35369015
45	0x3cd22069	0.02565022
46	0x3f435c02	0.7631227
47	0xbebf12de	-0.37319082

conv1.lin_edge.weight f4 [16, 1]
0	0xbecc1103	-0.3985673
1	0xbdabfd13	-0.083978795
2	0x3e701a0e	0.23447439
3	0xbee09b7d	-0.43868628
4	0xbea90cd4	-0.330176
5	0x3ec031bf	0.37537953
6	0x3eee5c37	0.4655473
7	0x3efd296d	0.49445668
8	0x3f04e0ef	0.5190572
9	0x3efa2d17	0.48862526
10	0x3eed453c	0.46341884
11	0xbe9866b1	-0.29765847
12	0x3ed6aafc	0.41927326
13	0x3ebcaa9c	0.36848915
14	0xbe32a4ba	-0.1744565
15	0xbe45d9c8	-0.19321358

conv2.att_src f4 [1, 2, 32]
0	0xbf07ec17	-0.5309462
1	0x3f7e11ff	0.9924621
2	0xbf362774	-0.7115395
3	0xbf363bad	-0.7118481
4	0xbf34e026	-0.70654523
5	0xbf03ad09	-0.51435906
6	0xbf644b11	-0.8917704
7	0xbf759308	-0.95927477
8	0xbf3433c8	-0.7039151
9	0xbf093980	-0.53603363
10	0xbe9f453b	-0.31107506
11	0x3eda32b9	0.42616823
12	0xbed8c370	-0.42336607
13	0xbdba1361	-0.090857275
14	0x3ef5f98b	0.4804195
15	0xbf63fc8d	-0.89057237
16	0xbdee759e	-0.116435274
17	0x3efb0a29	0.4903119
18	0xbccddd07	-0.025129808
19	0xbef9e1ec	-0.48805177
20	0xbf6da3de	-0.92828166
21	0xbe05be1a	-0.13060799
22	0x3f09098d	0.535302
23	0xbe8c7c53	-0.27438602
24	0xbe197cfc	-0.14989084
25	0xbf4ee574	-0.8081887
26	0xbe848499	-0.25882414
27	0xbf26c430	-0.6514311
28	0xbf39a631	-0.7251921
29	0x3f1b94cb	0.60773915
30	0xbf750b42	-0.95720303
31	0x3e122c5c	0.14274734
32	0xbf2bee74	-0.67160726
33	0x3f2ffa00	0.68740845
34	0x3e5765ed	0.21034975
35	0xbde82da4	-0.1133683
36	0xbf185042	-0.59497464
37	0x3f0a17e7	0.5394272
38	0xbf15e083	-0.585457
39	0x3cc4ab29	0.024007397
40	0x3ea74437	0.3266923
41	0xbedc8299	-0.43068388
42	0xbf064f6b	-0.5246493
43	0x3ed0a42f	0.40750262
44	0x3f479496	0.779611
45	0xbf5774f0	-0.8416281
46	0x3dc10bf8	0.09426111
47	0x3c86159e	0.01636773
48	0xbf468bd9	-0.7755714
49	0xbf1bd12f	-0.60866064
50	0x3f05a624	0.52206635
51	0xbf090e88	-0.535378
52	0x3f32b0c1	0.69800955
53	0xbf2ed3dc	-0.6829202
54	0x3e3a128a	0.18171135
55	0x3ed1d5f4	0.40983546
56	0x3e93c98d	0.2886471
57	0x3e8f3950	0.27973413
58	0xbd854b5c	-0.06508514
59	0xbe14f8bb	-0.14548008
60	0xbf045a19	-0.5169998
61	0x3d87850a	0.06617172
62	0x3c6184de	0.013764588
63	0xbf308372	-0.6895057

conv2.att_dst f4 [1, 2, 32]
0	0x3eb9b1e6	0.36268538
1	0x3cfc0639	0.030764686
2	0xbb90d18c	-0.004419511
3	0xbe73cea9	-0.23809303
4	0x3e69ed37	0.22844397
5	0xbe251b18	-0.16123617
6	0x3ea4f04d	0.32214585
7	0xbd82b0be	-0.06381367
8	0x3ea9396a	0.33051616
9	0x3ea3cd5d	0.31992617
10	0x3e2c78ad	0.16842909
11	0xbebf8120	-0.37403202
12	0x3c813ae4	0.015775152
13	0xbeb5f32b	-0.35537085
14	0xbc826203	-0.015915876
15	0x3e9180a7	0.28418466
16	0xbdac1ca1	-0.08403898
17	0x3eaa9de7	0.33323595
18	0xbcc8a2fb	-0.024491778
19	0xbe92a2f6	-0.28639954
20	0xbe736169	-0.23767628
21	0xbed503f8	-0.4160459
22	0x3e16e4c3	0.14735703
23	0x3eb06636	0.3445298
24	0xbe56213d	-0.20911117
25	0xbcead84f	-0.028667597
26	0xbdb5cf04	-0.08877376
27	0x3e96e5c2	0.29472166
28	0xbe40cf86	-0.18829164
29	0xbe8c378e	-0.27386135
30	0x3bd3579f	0.006449654
31	0xbd75c529	-0.06000248
32	0xbe8c0d52	-0.27353913
33	0xbecc8d99	-0.3995178
34	0x3ea4eb0c	0.32210577
35	0x3e184ab8	0.14872253
36	0x3e98a3ec	0.29812562
37	0x3ef41c0d	0.4767765
38	0x3b63a6f0	0.0034736954
39	0xbc585a30	-0.013205096
40	0xbe72b144	-0.23700434
41	0xbc982fe5	-0.018577525
42	0x3e85d786	0.26140994
43	0xbeea3085	-0.45740142
44	0xbe659ba8	-0.2242266
45	0x3e152068	0.14563143
46	0xbe396f5d	-0.18108888
47	0x3e0edb51	0.1395085
48	0x3d56fe08	0.052488357
49	0x3f237ec7	0.6386532
50	0xbc974cfd	-0.018469328
51	0x3e91ca86	0.28474826
52	0xbe3dc5b0	-0.18532443
53	0x3e128773	0.14309482
54	0xbef5d53a	-0.4801424
55	0x3e9c2928	0.3050015
56	0xbe1e2778	-0.15444744
57	0xbd2c0854	-0.04200013
58	0xbf0dcd27	-0.5539116
59	0xbe9256e8	-0.2858193
60	0xbf0483e0	-0.51763725
61	0xbe21d533	-0.15803985
62	0x3e22979d	0.15878148
63	0x3caeb586	0.021326791

conv2.att_edge f4 [1, 2, 32]
0	0xbefe1074	-0.49621928
1	0xbeaecc28	-0.34140134
2	0xbe38b6e8	-0.18038523
3	0x3edb03b7	0.42776272
4	0x3f4007a0	0.75011635
5	0x3e49d8c0	0.1971159
6	0xbf29f457	-0.6638846
7	0xbf229bb7	-0.6351885
8	0x3ef6517d	0.48109046
9	0xbf0a8377	-0.5410685
10	0x3f4726fb	0.77793854
11	0xbf46541c	-0.7747209
12	0xbe2f62b5	-0.17127497
13	0xbf3aeef3	-0.7302086
14	0xbf2deeda	-0.67942584
15	0x3ed29bac	0.41134393
16	0xbf1e12d7	-0.617475
17	0x3eb5f9c0	0.35542107
18	0xbf3fa133	-0.74855345
19	0x3e28fe88	0.16503346
20	0xbf2a34fc	-0.664871
21	0xbd7c8973	-0.06165452
22	0x3f283d4b	0.65718526
23	0xbecf820f	-0.40528914
24	0x3ed87e58	0.42283893
25	0x3ea7455a	0.326701
26	0x3f02b20d	0.51052934
27	0xbe2f3f8f	-0.1711409
28	0x3ebef79c	0.37298286
29	0x3f4b53f6	0.7942499
30	0xbe9c304e	-0.30505604
31	0x3d9aec70	0.07564628
32	0xbedc9c3e	-0.43087953
33	0xbe14158d	-0.14461346
34	0xbe035c1f	-0.1282811
35	0x3f023f23	0.5087759
36	0x3ef5c2a4	0.48000062
37	0xbdaa7f3d	-0.0832505
38	0xbe9e804d	-0.3095726
39	0x3dec61ef	0.11542117
40	0x3eb2d49e	0.3492784
41	0xbee9a227	-0.45631525
42	0x3e088223	0.13330893
43	0x3ed5f992	0.4179197
44	0x3dcb604c	0.099304765
45	0xbeb20202	-0.34767157
46	0x3ed73ad5	0.42037073
47	0x3eaac022	0.3334971
48	0xbebe126a	-0.37123424
49	0x3d8928db	0.06697246
50	0xbea95095	-0.33069292
51	0xbe301f2d	-0.17199393
52	0xbed66b26	-0.41878623
53	0xbe390a44	-0.18070322
54	0xbee6ad77	-0.45054218
55	0xbeeeae3f	-0.46617314
56	0xbdc8fefa	-0.09814258
57	0x3d6a90f1	0.057267133
58	0xbe0b6550	-0.13612866
59	0xbed769f7	-0.42073032
60	0xbe8a37e0	-0.26995754
61	0x3e3cf5db	0.18453161
62	0x3eafed4b	0.34360728
63	0x3e5b1d56	0.2139791

conv2.bias f4 [64]
0	0xbbbf0dda	-0.0058305087
1	0x00000000	0.0
2	0x3c9e55c1	0.019328
3	0x3e33ab14	0.1754573
4	0x3ca67da0	0.020323575
5	0x3db363a9	0.08759243
6	0x3d03a2da	0.03213773
7	0x3d8b15c2	0.06791259
8	0x3cb3b983	0.021939045
9	0xbc98cbae	-0.01865181
10	0xbd1bba79	-0.03801963
11	0xbce2434e	-0.027619984
12	0xbd0363af	-0.032077488
13	0x3cc0c90e	0.02353337
14	0x3d2bcfde	0.041946284
15	0x3cb2c185	0.021820793
16	0xbb883e40	-0.0041578114
17	0xbbfb6e71	-0.0076730778
18	0xbce31013	-0.027717626
19	0x3dacdbd1	0.08440364
20	0x3cb4ae9c	0.022055916
21	0x3d4fd33e	0.050738566
22	0x00000000	0.0
23	0x3cd5b3f7	0.02608679
24	0x3b1c1d52	0.0023821187
25	0x3dbc422c	0.09192309
26	0xbc69912e	-0.014255805
27	0xbc5e28f1	-0.013559566
28	0x3ce564a5	0.028002093
29	0x00000000	0.0
30	0x3d1b84c1	0.0379684
31	0xbca1a788	-0.019733205
32	0x3d25f252	0.040514298
33	0x3e2172b3	0.1576641
34	0xbc93cf3d	-0.018043155
35	0x3da1c9f7	0.0789985
36	0xbcc2b522	-0.023768011
37	0x3b807b3f	0.003920942
38	0x3d490208	0.049074203
39	0x3dd42e71	0.103604205
40	0xbc87a3dc	-0.016557626
41	0x3c82a4b3	0.015947675
42	0x3d3f1180	0.04664755
43	0x3e06a356	0.13148245
44	0x3d81191e	0.06303619
45	0x3d396b75	0.045268495
46	0x3dad7045	0.08468679
47	0x3d85c78a	0.065322
48	0xbd08e695	-0.033423025
49	0x3c3c5832	0.011495637
50	0x3dc14bf2	0.094383135
51	0xbc2a512c	-0.010395329
52	0x3c931719	0.01795535
53	0xbb6faab4	-0.0036570253
54	0x00000000	0.0
55	0xbc71b661	-0.014752955
56	0xbd0951e3	-0.03352536
57	0x3d811249	0.06302316
58	0x00000000	0.0
59	0x00000000	0.0
60	0x00000000	0.0
61	0x3ced5f40	0.028976083
62	0x3d14f0d8	0.0363625
63	0x3cc0123f	0.0234462

conv2.lin.weight f4 [64, 16]
0	0xbc8bcdd2	-0.017065916
1	0xbe6f0b62	-0.23344186
2	0xbe139a19	-0.14414252
3	0x3e769079	0.2407855
4	0xbe57a117	-0.21057545
5	0x3e11de2b	0.14244907
6	0xbea340a2	-0.31885248
7	0xbdcc6833	-0.09980812
8	0x3e8b2341	0.27175334
9	0x3e5eca14	0.21756774
10	0xbe87c617	-0.26518318
11	0xbdb5e3c3	-0.08881333
12	0x3e4f1390	0.20222306
13	0x3e05cbd7	0.1306604
14	0xbe9b00cd	-0.30274048
15	0x3c0c56fa	0.008565659
16	0xbe10ee7b	-0.14153473
17	0xbeb40ea8	-0.35167432
18	0xbf19fab7	-0.60148185
19	0xbe7a52db	-0.2444567
20	0xbe6a5b83	-0.22886471
21	0x3ba2714a	0.0049573528
22	0x3ec1f805	0.37884536
23	0xbc4501bf	-0.012024342
24	0xbf63c0e6	-0.88966215
25	0x3de4a081	0.11163426
26	0xbe1999a1	-0.15000011
27	0xbf27bcf2	-0.6552268
28	0xba28477a	-0.0006419342
29	0xbf478c7b	-0.7794873
30	0x3eb99aaa	0.36250812
31	0xbee15cf9	-0.44016245
32	0x3e90334b	0.28164133
33	0x3f077e6f	0.529273
34	0x3ea98965	0.33112636
35	0xbe751aeb	-0.2393605
36	0x3c24aa6e	0.010050399
37	0x3e42e64d	0.19033165
38	0x3db3ccbe	0.08779286
39	0x3d8c9682	0.068646446
40	0x3e8e42a5	0.2778522
41	0xbdee6f86	-0.11642365
42	0x3e893c90	0.26804018
43	0x3eaa41f0	0.3325343
44	0xbe069394	-0.13142234
45	0xbdf6baab	-0.12047323
46	0x3de394ae	0.11112343
47	0x3e4b43c5	0.19850071
48	0xbe880670	-0.2656741
49	0x3d147905	0.036248226
50	0x3dcab712	0.09898199
51	0xbe373e72	-0.17894915
52	0xbe59b534	-0.2126053
53	0xbd989a31	-0.07451285
54	0xbf15706b	-0.5837466
55	0xbe4d89e0	-0.20072126
56	0xbc6ddbd7	-0.014517746
57	0x3d6491c0	0.05580306
58	0x3e0fa5ba	0.14028063
59	0x3eced195	0.40394273
60	0xbe6ad70c	-0.22933596
61	0x3e42cdc4	0.19023806
62	0xbf0fff02	-0.56248486
63	0x3e329995	0.174414
64	0x3d1cf74c	0.03832178
65	0xbd0a9541	-0.033833746
66	0x3e0112f8	0.12604892
67	0x3d2f5fb1	0.042815868
68	0xbe6771aa	-0.22601953
69	0xbe2fc30b	-0.17164247
70	0xbd86b10f	-0.0657674
71	0x3e414214	0.18872863
72	0x3e97ae67	0.29625246
73	0x3df23cc2	0.11827995
74	0xbe1a628c	-0.15076655
75	0xbcda791e	-0.026669081
76	0xbddbfe6d	-0.10741887
77	0x3e3a78df	0.18210171
78	0xbdea5fe8	-0.11444074
79	0xbee81f6c	-0.45336473
80	0x3db2e9e7	0.087360196
81	0xbea9d1b3	-0.331678
82	0xbb80d7f7	-0.003931995
83	0xbe207608	-0.15670025
84	0xbe8559bb	-0.2604502
85	0xbe5e0d56	-0.21684775
86	0x3ecffe11	0.40623525
87	0xbe261a27	-0.16220914
88	0x3e3e96d9	0.18612231
89	0xbe76e8ab	-0.24112193
90	0xbe23afbf	-0.1598501
91	0xbd2527a9	-0.040321026
92	0x3e852dce	0.2601151
93	0x3dd0a1c3	0.101871036
94	0x3d39850c	0.0452929
95	0x3e069800	0.13143921
96	0xbe8dcfda	-0.2769764
97	0xbd7cc1b3	-0.061708163
98	0xbda747c0	-0.08167982
99	0x3dfb59f4	0.122730166
100	0xbc72eb71	-0.014826641
101	0xbe184e44	-0.14873606
102	0x3d326aa9	0.04355875
103	0xbd048829	-0.032356415
104	0x3e14211a	0.14465752
105	0x3e60f9bf	0.2197027
106	0xbdc76d99	-0.09737701
107	0x3ebbcc1f	0.3667917
108	0xbdf8fde2	-0.12157799
109	0x3e22e9d3	0.1590951
110	0xbe686b0d	-0.22697087
111	0x3e9cee4a	0.3065055
112	0xbea6a127	-0.32544824
113	0xbf3efa1f	-0.74600405
114	0x3e021695	0.12703927
115	0xbe592cd0	-0.21208501
116	0x3e577be8	0.2104336
117	0x3d8244b9	0.06360764
118	0x3e33e735	0.17568667
119	0x3e20e2d7	0.15711533
120	0x3e89eb07	0.26937124
121	0xbe40dd52	-0.18834427
122	0xbe10759d	-0.14107366
123	0x3e58f383	0.21186642
124	0x3e0d233b	0.1378297
125	0x3d9091f3	0.070590876
126	0xbe2c10c3	-0.16803269
127	0x3de45875	0.11149684
128	0xbe217fbb	-0.15771382
129	0xbea6090b	-0.32428774
130	0x3c9ac24a	0.018891472
131	0x3e1d430e	0.1535761
132	0x3e0150fb	0.12628548
133	0x3d141563	0.03615321
134	0xbd9a4dab	-0.07534345
135	0x3d417222	0.047227986
136	0x3e783a11	0.242409
137	0xbe771dce	-0.24132463
138	0xbe72e577	-0.23720346
139	0x3cbd8751	0.023135813
140	0xbe3cc5b8	-0.18434799
141	0x3e002e8f	0.1251776
142	0xbeae1b18	-0.34005046
143	0xbd0c72c1	-0.034289125
144	0xbe4d443c	-0.2004556
145	0xbf0e39db	-0.5555703
146	0x3e8d098a	0.2754634
147	0x3e085855	0.13314946
148	0x3d87a139	0.06622548
149	0x3d4ce5da	0.05002389
150	0xbb3f420d	-0.0029183656
151	0xbe6f2915	-0.23355515
152	0x3e81a73a	0.25322896
153	0x3e401c2c	0.18760747
154	0xbe5feaa7	-0.21866857
155	0x3e4b1fae	0.19836304
156	0xbe4fdf57	-0.20300041
157	0x3ead2b12	0.33821923
158	0x3e5aaf64	0.21355969
159	0x3d803ef5	0.06262008
160	0x3e053f99	0.13012542
161	0xbeda682e	-0.42657608
162	0x3de83123	0.11337497
163	0xbcc638db	-0.024197033
164	0xbe325181	-0.17413904
165	0xbe484d7f	-0.19560812
166	0x3d6c15c3	0.05763794
167	0xbd88009e	-0.06640743
168	0xbdab5e0e	-0.08367549
169	0xbdaf866d	-0.085705616
170	0x3d638249	0.05554417
171	0x3f2aa08e	0.66651237
172	0xbe6f1015	-0.23345979
173	0x3d50533d	0.050860632
174	0x3e2398a9	0.15976204
175	0x3f29b412	0.6629039
176	0xbc73f5a0	-0.0148901045
177	0xbe50af72	-0.20379427
178	0xbd2b233a	-0.04178164
179	0x3baa06f7	0.0051888186
180	0xbda0bdc4	-0.07848695
181	0xbe046f84	-0.12933165
182	0x3ed96369	0.42458656
183	0xbdcabcc5	-0.09899286
184	0xbdb42a8e	-0.08797179
185	0xbe7087fe	-0.23489377
186	0x3df02758	0.11726254
187	0x3d8e0f26	0.06936483
188	0x3e3b1f2f	0.18273614
189	0x3e258922	0.16165593
190	0x3edf3af3	0.43599662
191	0x3c98b68a	0.018641729
192	0x3ec72fc0	0.38903618
193	0xbe99eff4	-0.30065882
194	0x3d9df7d1	0.07713283
195	0x3d869efa	0.06573291
196	0xbe6c5023	-0.23077445
197	0x3d636b8e	0.055522494
198	0xbd0c18c1	-0.034203295
199	0x3e052345	0.13001736
200	0xbdb62322	-0.0889342
201	0xbccd7a40	-0.025082707
202	0x3cf6e5e2	0.030138914
203	0x3d204743	0.03913046
204	0x3e146b09	0.14493956
205	0x3d990a63	0.07472684
206	0x3edc49dc	0.430251
207	0x3c114152	0.008865671
208	0xbe80e8ff	-0.25177762
209	0xbe618f23	-0.22027259
210	0x3e1ff377	0.15620218
211	0xbe4eaeca	-0.20183864
212	0xbe101450	-0.14070249
213	0xbdf20813	-0.11817946
214	0xbe6b9bea	-0.23008695
215	0x3c3dd094	0.011585373
216	0x3e8801af	0.26563784
217	0x3cb6bdbd	0.022307271
218	0x3e21227e	0.15735814
219	0x3e15b0bd	0.14618202
220	0x3e39c72a	0.18142381
221	0xbd81b33e	-0.06333016
222	0xbeac3adb	-0.33638653
223	0x3ef500d7	0.47852203
224	0x3e23af9a	0.15984955
225	0xbd748ff0	-0.059707582
226	0xbc19f69e	-0.009397177
227	0xbe434006	-0.19067392
228	0x3e214731	0.15749814
229	0x3deef4f6	0.11667816
230	0xbea934d2	-0.3304811
231	0x3e31f59d	0.1737885
232	0x3ce3e722	0.027820174
233	0x3e0e9d31	0.13927151
234	0x3e28b9c7	0.16477118
235	0xbe863658	-0.26213336
236	0xbdf135b6	-0.11777823
237	0x3e43671a	0.19082299
238	0xbe8e5abf	-0.2780361
239	0xbe7507a8	-0.23928702
240	0xbe9dd2e4	-0.3082496
241	0x3d37a835	0.04483815
242	0x3d86c8b8	0.06581253
243	0x3dc371c6	0.09543185
244	0x3e26c20f	0.16284965
245	0x3ad47a54	0.0016210773
246	0x3dcbd844	0.09953359
247	0xbdeabfe6	-0.11462383
248	0x3d2b1d28	0.041775852
249	0xbe07c2d6	-0.13257918
250	0x3e7b88d8	0.2456392
251	0x3e8a9734	0.27068484
252	0x3cd57a1e	0.026059207
253	0x3e76795a	0.2406973
254	0xbecad490	-0.39615297
255	0x3de89fff	0.11358642

conv2.lin_edge.weight f4 [64, 2]
0	0x3f1fc9e2	0.62417424
1	0xbe8044a0	-0.25052357
2	0x3f0bc417	0.54596084
3	0x3e5fee7d	0.2186832
4	0x3e9d3ecb	0.3071197
5	0x3d3494fa	0.044087388
6	0xbee1f6a0	-0.44133472
7	0x3e71c72d	0.23611136
8	0xbf23aadd	-0.6393259
9	0x3e0db485	0.13838394
10	0xbebc1726	-0.3673641
11	0x3e2701ff	0.16309355
12	0x3ee6a4d5	0.45047632
13	0xbdcf5e04	-0.10125354
14	0x3f266a90	0.6500635
15	0xbe43fa76	-0.19138512
16	0xbec4c819	-0.38433912
17	0x3df74a99	0.12074775
18	0x3f0367d8	0.5133033
19	0xbd56dddc	-0.052457675
20	0xbed75eda	-0.42064553
21	0xbd98d686	-0.07462792
22	0x3f0260c4	0.509289
23	0xbe35ff57	-0.17773186
24	0x3eb6bca2	0.3569079
25	0x3d374d95	0.044751722
26	0x3ebe3ab8	0.37154174
27	0xbd1abcc3	-0.037777673
28	0x3f06a01d	0.52588063
29	0xbe58fdc2	-0.21190551
30	0xbf2d0281	-0.67581946
31	0x3e8e3c37	0.27780315
32	0x3eee9afe	0.46602625
33	0x3e43a4ce	0.19105837
34	0xbef57ed6	-0.4794833
35	0xbda10cc9	-0.07863767
36	0x3f1efe2b	0.6210658
37	0xbd704f73	-0.05866952
38	0xbdb083cc	-0.08618888
39	0xbe485fd8	-0.19567811
40	0x3f172fb1	0.59057146
41	0xbe927123	-0.2860194
42	0x3a900d16	0.0010990228
43	0x3c9be8c6	0.019031893
44	0xbeb60d19	-0.35556868
45	0xbdc0546e	-0.09391104
46	0x3e6a5023	0.22882132
47	0xbd4b0a47	-0.049570348
48	0xbee37f3c	-0.4443301
49	0xbe2bfe7e	-0.167963
50	0xbe40c0b0	-0.18823504
51	0xbdc8135e	-0.09769319
52	0xbed8fbe1	-0.42379668
53	0x3eb41b80	0.3517723
54	0x3e99ca4a	0.30037147
55	0xbe6bdfda	-0.23034611
56	0xbee5aa12	-0.44856316
57	0x3e2c7c12	0.16844204
58	0xbedaa86f	-0.4270663
59	0xbde445b6	-0.11146109
60	0x3ede4a10	0.4341588
61	0xbc65891b	-0.014009739
62	0xbcd4551d	-0.025919491
63	0x3ec4ca2a	0.3843549
64	0x3e1ea83e	0.15493867
65	0xbd1a3043	-0.037643682
66	0x3b689996	0.0035491935
67	0xbc166ecc	-0.0091816895
68	0x3eb7f202	0.35926825
69	0xbcfdd23c	-0.030984037
70	0xbebf2acb	-0.37337336
71	0xbe42b254	-0.1901334
72	0xbea43a6e	-0.32075828
73	0xbdddd55b	-0.1083171
74	0xbce1c8e8	-0.02756162
75	0xbcaab610	-0.020838767
76	0x3dfa46c8	0.12220532
77	0x3d8d53d7	0.06900757
78	0xbe2cbbdd	-0.16868539
79	0xbebe0eb0	-0.3712058
80	0xbe9e01d3	-0.30860767
81	0x3d96c4f6	0.07361786
82	0x3e63ebb4	0.22257882
83	0x3e73887e	0.23782536
84	0x3e038ca7	0.12846623
85	0x3d9317b4	0.071822554
86	0x3c37eb99	0.011225604
87	0xbe058914	-0.13040572
88	0x3e3f61f2	0.18689707
89	0xbd0241ff	-0.03180122
90	0xbd232204	-0.03982736
91	0x3ec1de0c	0.3786472
92	0xbec280a7	-0.3798878
93	0xbd6dca2a	-0.058054127
94	0x3e31d1bd	0.17365165
95	0xbe9222e2	-0.28542238
96	0x3ec14e4b	0.37755045
97	0x3e60b507	0.21944056
98	0xbe27f95d	-0.16403718
99	0xbee44b43	-0.4458867
100	0x3ea476b7	0.32121822
101	0xbd818ac7	-0.06325298
102	0x3ed7be58	0.42137408
103	0x3e58e59d	0.2118134
104	0x3e49922f	0.19684671
105	0x3dadbc8a	0.084832266
106	0x3e945b24	0.28975785
107	0x3dc708f1	0.09718502
108	0x3e9c0324	0.30471146
109	0xbe0f691d	-0.14004941
110	0x3e91d145	0.28479972
111	0xbd5b6997	-0.053567495
112	0xbb0771b0	-0.0020667128
113	0x3ebaed2d	0.36509076
114	0xbde48ad9	-0.111592956
115	0xbe90dd9b	-0.28294072
116	0x3e2e0a33	0.16996078
117	0x3ec1c7c2	0.37847716
118	0xbc3022c1	-0.0107504735
119	0x3e7ff8a1	0.24997188
120	0xbd8e5b0a	-0.06950958
121	0x3d997341	0.07492686
122	0x3db65f59	0.08904905
123	0xbe58f364	-0.21186596
124	0x3d4f4af4	0.05060859
125	0xbec8dd30	-0.39231253
126	0xbc054aad	-0.00813548
127	0x3e0564b1	0.13026692

conv3.att_src f4 [1, 1, 128]
0	0xbe4a2b53	-0.1974309
1	0x3e81b4c7	0.25333235
2	0xbe025081	-0.12726022
3	0xbe2f37c2	-0.17111114
4	0xbe0b3d8c	-0.13597697
5	0x3e2205d5	0.15822537
6	0x3e8e7b81	0.278286
7	0xbdd63709	-0.10459716
8	0x3e169353	0.14704637
9	0xbd9aedc9	-0.07564885
10	0xbd8d01e7	-0.068851285
11	0x3de289d6	0.11061446
12	0x3dfcfb88	0.12352663
13	0xbe89e783	-0.26934442
14	0x3e2543a7	0.16139089
15	0xbe92b0e3	-0.2865058
16	0xbe2d4314	-0.1692012
17	0xbe065542	-0.13118461
18	0xbebbfda3	-0.36716947
19	0xbdbe9786	-0.093062446
20	0x3df118f3	0.11772337
21	0xbd3ce3fe	-0.046115868
22	0xbee9aabf	-0.4563808
23	0xbd8651e7	-0.065585904
24	0xbdffb1dc	-0.12485096
25	0x3e8250c3	0.2545224
26	0x3cfdbd78	0.030974135
27	0xbec56b74	-0.38558543
28	0x3e8b4d9a	0.27207643
29	0xbe41a621	-0.1891103
30	0x3deda93f	0.11604547
31	0xbe8230d8	-0.2542789
32	0x3e89432f	0.2680907
33	0x3e56f4c7	0.20991813
34	0x3ebbea7e	0.3670234
35	0x3e0e8b42	0.1392031
36	0xbe18b141	-0.14911367
37	0xbed4c2d6	-0.41554898
38	0x3c58704e	0.013210369
39	0xbe029cff	-0.12755202
40	0x3cb7425e	0.022370514
41	0xbdb4d6d0	-0.08830035
42	0xbe1d11c2	-0.15338805
43	0xbd0d2c71	-0.03446621
44	0x3e488a26	0.1958395
45	0xbc17069b	-0.009217883
46	0x3e1d7451	0.15376402
47	0x3de72f57	0.11288326
48	0xbd4101c4	-0.047120824
49	0x3e77e352	0.2420781
50	0x3bb2252c	0.00543656
51	0xbde8df63	-0.11370733
52	0xbe9bedeb	-0.30454955
53	0xbe05160a	-0.12996688
54	0xbe6e70a3	-0.23285155
55	0xbd0faeed	-0.03507893
56	0xbeb16e0b	-0.3465427
57	0xbe09da18	-0.13462102
58	0x3db906de	0.09034513
59	0x3da8123e	0.082066044
60	0x3d4bb91c	0.04973708
61	0xbe6a5bcd	-0.22886582
62	0x3dceb174	0.1009244
63	0xbdaf0bf6	-0.08547203
64	0x3d1ce26d	0.038301874
65	0x3ecb393f	0.39692113
66	0x3e94fc2f	0.2909865
67	0xbefc358a	-0.49259597
68	0xbea5e493	-0.3240095
69	0xbcde06ce	-0.027102854
70	0xbcb10488	-0.021608606
71	0x3e6e3d2e	0.23265526
72	0x3e0d3f03	0.13793568
73	0xbe0be7bf	-0.13662623
74	0x3e2d72c9	0.16938318
75	0xbdb9f0c3	-0.09079125
76	0xbd53b490	-0.05168587
77	0x3c54619a	0.012962723
78	0xbeb7656b	-0.35819563
79	0xbe699271	-0.22809769
80	0x3e7ab322	0.24482396
81	0x3c0754e9	0.00825999
82	0xbe62ff06	-0.22167596
83	0xbd94f145	-0.07272581
84	0xbd1971da	-0.037462093
85	0x3eb07b8c	0.3446926
86	0xbc1935f6	-0.009351244
87	0xbea7f832	-0.32806545
88	0xbe0b21c8	-0.13587105
89	0x3e16288b	0.14663903
90	0x3e592d37	0.21208654
91	0x3e89fd55	0.2695109
92	0x3e3a7b93	0.18211202
93	0xbd685974	-0.056725934
94	0xbd0bfd61	-0.034177188
95	0xba8e797c	-0.0010869945
96	0x3e3d6e57	0.18499123
97	0x3d66da7d	0.05636071
98	0xbea04da6	-0.3130924
99	0xbda416f7	-0.08012193
100	0xbedcd06c	-0.43127763
101	0x3df28ffe	0.118438706
102	0x3dc5628c	0.09637937
103	0x3eb2fee7	0.349601
104	0x3e0cc86f	0.13748334
105	0x3e9cfb21	0.30660346
106	0xbed66d7c	-0.41880405
107	0x3e2c0ce9	0.168018
108	0x3d5ccd2a	0.053906597
109	0xbe293b61	-0.16526558
110	0x3de318e4	0.11088732
111	0xbeabc4b2	-0.33548504
112	0x3dba7f9f	0.09106373
113	0xbd93d685	-0.07218651
114	0x3ce08104	0.02740527
115	0x3ebbff53	0.36718234
116	0x3eb18610	0.34672594
117	0x3e143574	0.14473516
118	0xbde5222a	-0.11188157
119	0x3eca9483	0.3956643
120	0xbde84975	-0.11342136
121	0x3e2dea23	0.16983847
122	0xbdd64dde	-0.10464071
123	0x3e01bb4b	0.12669103
124	0xbdc139a0	-0.09434819
125	0xbcdfe9b9	-0.027333127
126	0x3df184cc	0.11792907
127	0xbe95e459	-0.29275778

conv3.att_dst f4 [1, 1, 128]
0	0xbe5b0e48	-0.21392167
1	0x3d8145d1	0.063121445
2	0xbc94e496	-0.018175405
3	0x3dd0f90e	0.102037534
4	0x3e5bc3d0	0.21461415
5	0xbdfe0988	-0.12404162
6	0x3ddee1ec	0.10882935
7	0x3daa7e07	0.08324819
8	0xbe47b2d1	-0.19501807
9	0x3e1bf6c1	0.15230848
10	0xbdddb04a	-0.1082464
11	0xbc134023	-0.008987459
12	0x3e1a06d8	0.15041673
13	0x3e297ec7	0.16552268
14	0x3e033042	0.12811378
15	0xbe5a2d82	-0.21306422
16	0x3d758225	0.05993857
17	0x3dff2bd9	0.12459535
18	0xbe3fdbc3	-0.18736176
19	0x3e4354c7	0.19075309
20	0x3e10add1	0.14128806
21	0xbe4e185c	-0.2012648
22	0xbc0c7f1a	-0.008575225
23	0x3df01366	0.1172245
24	0xbe702a88	-0.23453724
25	0xbbc4256d	-0.005985907
26	0x3dd4ca57	0.10390156
27	0xbe45c1ba	-0.19312182
28	0x3d185ef1	0.03719992
29	0x3dfbb453	0.122902535
30	0xbd64b4d8	-0.05583653
31	0xbcc5605b	-0.024093797
32	0x3e3ddbb0	0.18540835
33	0x3e0f7da1	0.14012767
34	0x3e35b41a	0.17744485
35	0xbd2e3f38	-0.04254076
36	0x3da2307b	0.07919403
37	0x3e1d8bee	0.1538541
38	0x3d550d48	0.05201462
39	0x3da39356	0.079870865
40	0xbe368c26	-0.178269
41	0x3e077878	0.13229549
42	0x3baf8dc7	0.0053574773
43	0xbd32d0bc	-0.043656096
44	0xbd3b2e16	-0.045698248
45	0x3e3dafb6	0.1852406
46	0x3e09eba9	0.13468803
47	0xbdcbec8c	-0.09957227
48	0xbdfa9148	-0.122347414
49	0x3e250d37	0.16118322
50	0xbc0008ac	-0.007814568
51	0x3df1a09b	0.11798211
52	0x3d6fb963	0.058526408
53	0x3e0f3d66	0.13988265
54	0xbe1ad3e2	-0.1511989
55	0x3dc5e91d	0.096636035
56	0x3e62726a	0.22113958
57	0xbdf65cf1	-0.12029446
58	0x3dedeb5b	0.11617156
59	0xbe6d795a	-0.23190823
60	0xbe3ba441	-0.18324377
61	0x3d72ad6c	0.05924742
62	0xbd3dab04	-0.04630567
63	0xbd006525	-0.03134646
64	0xbe3d5392	-0.18488911
65	0xbd01cf49	-0.031691823
66	0x3c97c777	0.01852773
67	0x3e2dc108	0.16968167
68	0x3e1db790	0.15402055
69	0x3e484cde	0.19560573
70	0x3e6cfa31	0.23142315
71	0xbe55bb8b	-0.20872323
72	0xbe3ea099	-0.1861595
73	0xbdf0e5f5	-0.11762611
74	0xbe223e8b	-0.15844171
75	0xbd2060db	-0.03915487
76	0x3d3efde8	0.046628863
77	0x3c1a05cf	0.009400799
78	0x3dfbf600	0.1230278
79	0xbd6545a1	-0.055974606
80	0xbe201d44	-0.15636164
81	0x3dfb149b	0.122597896
82	0x3e3d3c33	0.18479995
83	0x3dea684f	0.114456765
84	0x3e176eb8	0.1478833
85	0xbd2115cc	-0.039327428
86	0x3dbb0ba6	0.09133081
87	0x3e6f27ed	0.23355074
88	0xbe388089	-0.18017782
89	0xbe69b301	-0.22822191
90	0xbdb145a7	-0.08655863
91	0xbdda410c	-0.10656938
92	0xbd8771ee	-0.06613527
93	0x3e00f7a7	0.12594472
94	0xbc11877c	-0.0088824
95	0xbd815077	-0.063141756
96	0x3e07d1a7	0.1326357
97	0x3e339706	0.1753808
98	0xbdbc5310	-0.091955304
99	0x3e2801d5	0.16406949
100	0xbdc834aa	-0.0977567
101	0x3e408335	0.18800052
102	0xbe053d50	-0.1301167
103	0x3ce37cdb	0.027769497
104	0x3e22c6b7	0.15896116
105	0xbe130ab3	-0.1435955
106	0x3e5729b0	0.21011996
107	0xbe012c74	-0.12614614
108	0x3e053201	0.13007356
109	0x3db5ec27	0.08882933
110	0x3c20d5d4	0.009816606
111	0x3cd8ad4d	0.026449824
112	0x3ce0d100	0.027443409
113	0xbd0a1894	-0.033714846
114	0x3cde1c64	0.027113147
115	0x3da099ab	0.0784181
116	0xbe6c35bc	-0.23067373
117	0xbe1eb755	-0.15499623
118	0x3e265336	0.1624268
119	0xbd0bca92	-0.034128733
120	0xbe531131	-0.20612027
121	0x3d23c3b9	0.039981578
122	0x3df0c6f0	0.11756694
123	0xbb7cc421	-0.003856905
124	0x3e1d9c89	0.15391745
125	0x3e4c502f	0.19952463
126	0xbe0d5966	-0.13803634
127	0x3e082ac9	0.13297571

conv3.att_edge f4 [1, 1, 128]
0	0xbeba96c0	-0.36443138
1	0xbd773213	-0.06035049
2	0xbee1eae5	-0.44124523
3	0xbeca4363	-0.39504537
4	0x3ebd6108	0.3698809
5	0x3ea2a3fc	0.31765735
6	0x3eb90f3a	0.3614443
7	0x3e857886	0.26068515
8	0xbed73a2f	-0.42036578
9	0x3e632743	0.22182946
10	0x3e766239	0.24060906
11	0xbbbaf405	-0.005705359
12	0xbe577d44	-0.21043879
13	0x3e94e092	0.29077584
14	0xbe7421b7	-0.23840986
15	0x3d6988e3	0.05701531
16	0x3efabd58	0.48972583
17	0x3f0d90c6	0.5529903
18	0xbedf2bc9	-0.43588093
19	0xbeef1d53	-0.4670206
20	0xbed1ae74	-0.4095341
21	0x3ed516dc	0.41619003
22	0x3e8dd3b3	0.27700576
23	0x3ec05a71	0.37569
24	0x3e6fa2d9	0.23401965
25	0xbeb392e1	-0.35072997
26	0x3ebb6150	0.3659768
27	0x3eede9f1	0.46467546
28	0x3ea4f4c1	0.32217982
29	0x3eac5950	0.3366189
30	0xbe723561	-0.23653175
31	0x3e9a0ad7	0.30086395
32	0x3ebaf77c	0.3651694
33	0x3ddd46f7	0.10804551
34	0x3eefd05d	0.46838656
35	0x3e2b4c78	0.1672839
36	0x3dfaea05	0.12251667
37	0xbed98513	-0.4248434
38	0xbe5dd459	-0.21663035
39	0xbf0c2872	-0.54749215
40	0x3ea2ff8b	0.3183559
41	0x3e69bdbc	0.22826284
42	0xbec7982c	-0.38983285
43	0xbeba83a2	-0.36428553
44	0xbeef5070	-0.46741056
45	0x3ec8cb70	0.3921771
46	0xbed82a7e	-0.4221992
47	0x3eb49b05	0.3527452
48	0xbe95baaf	-0.2924399
49	0x3e9d12ac	0.30678308
50	0x3eb2e8f8	0.34943366
51	0xbeaf281f	-0.34210297
52	0x3f03d00b	0.51489323
53	0x3d85c057	0.065308265
54	0xbe8d1e96	-0.27562398
55	0xbeb9c48c	-0.36282766
56	0xbea39baf	-0.31954715
57	0xbef3ebf8	-0.47640967
58	0x3ef193ba	0.4718302
59	0xbd279b5a	-0.04091964
60	0xbf017c43	-0.50580233
61	0xbea89153	-0.32923374
62	0x3f046833	0.51721495
63	0x3eaadc9d	0.3337144
64	0x3e12c221	0.14331867
65	0x3ea65bdd	0.3249196
66	0xbec6478a	-0.38726455
67	0x3c906481	0.017626049
68	0x3ee1312d	0.4398283
69	0xbf0d45ea	-0.55184805
70	0x3e88b15f	0.26697823
71	0xbec9aa6a	-0.39387828
72	0x3efdb8ac	0.49554956
73	0x3ebeda29	0.37275818
74	0xbf032a64	-0.5123656
75	0xbe8298fa	-0.25507337
76	0x3f0647fc	0.5245359
77	0x3ec65338	0.38735366
78	0xbeaa025f	-0.33204934
79	0x3efbca3a	0.49177724
80	0xbe858411	-0.2607732
81	0xbecd1a06	-0.40058917
82	0xbee99dd7	-0.45628235
83	0x3e9a9382	0.30190665
84	0x3ef2d375	0.47426954
85	0xbeaded1a	-0.33969957
86	0xbeb0d5d7	-0.34538147
87	0x3e7a9360	0.24470282
88	0x3eb28ec3	0.34874544
89	0x3f027b3a	0.5096928
90	0x3ecb9d25	0.3976833
91	0x3eca906d	0.39563313
92	0x3abf6651	0.0014602636
93	0x3ec9c8dc	0.39411056
94	0x3ea997f6	0.3312375
95	0xbe8259ce	-0.2545914
96	0x3ec1356c	0.3773607
97	0xbec36872	-0.38165623
98	0xbeb4ec0b	-0.35336336
99	0x3ecc5f27	0.39916345
100	0x3eb7e287	0.35915014
101	0x3edacbc4	0.42733586
102	0xbedd2dbc	-0.43198955
103	0xbee18240	-0.44044685
104	0xbeb540cb	-0.35400996
105	0x3e8c1bc7	0.27364942
106	0xbe905f40	-0.2819767
107	0x3e5743bd	0.21021934
108	0xbe9fd057	-0.31213638
109	0xbecc78d5	-0.39935938
110	0xbe3e83d7	-0.1860498
111	0xbecbd66c	-0.39812028
112	0xbefc81aa	-0.49317676
113	0x3ec53964	0.38520348
114	0xbeadbc89	-0.33932903
115	0x3ea6a428	0.32547116
116	0xbe7a2f45	-0.24432094
117	0xbeb50ecb	-0.3536285
118	0xbe9697da	-0.2941273
119	0xbe54f2df	-0.20795773
120	0x3b86e1bc	0.004116265
121	0xbf038ac6	-0.51383626
122	0xbe81d98f	-0.25361297
123	0xbea22a6d	-0.31672993
124	0xbea0f6af	-0.31438205
125	0xbec875a5	-0.39152256
126	0xbe8ca2bc	-0.27467906
127	0xbed4fa0e	-0.41597027

conv3.bias f4 [128]
0	0x3cb1c1fc	0.021698944
1	0x3bb05493	0.005381176
2	0x3bee1cb7	0.0072666067
3	0xbc090f21	-0.008365423
4	0xbc8a5613	-0.016886747
5	0x3daf3a99	0.085560985
6	0x3cb9ebca	0.02269544
7	0x3d0d7965	0.0345396
8	0xbd653376	-0.05595728
9	0x3d81e7e4	0.06343058
10	0x3d6d0398	0.057864755
11	0x3d637e43	0.055540334
12	0x3d18548b	0.03719
13	0x00000000	0.0
14	0x3d822a49	0.063557215
15	0x00000000	0.0
16	0xbbd4cbbe	-0.0064940145
17	0x3cf4b260	0.029870212
18	0x00000000	0.0
19	0x3d69cb55	0.05707868
20	0x3d836dfc	0.06417462
21	0x3bd7019d	0.0065614716
22	0x00000000	0.0
23	0x3d77cf81	0.060500626
24	0x3cab934f	0.020944266
25	0xbc7c77bd	-0.015409407
26	0xbbd7e920	-0.00658907
27	0x00000000	0.0
28	0xbc9fd527	-0.019510819
29	0xbbaefc60	-0.005340144
30	0x3d0c2d9b	0.03422318
31	0x00000000	0.0
32	0x3d62c6be	0.055365317
33	0x3d024ebf	0.03181338
34	0xbc9c98b9	-0.019115793
35	0x3cdb32fb	0.026757708
36	0xbb98f2cd	-0.004667616
37	0xbbcea426	-0.006306189
38	0x3d20bb6d	0.039241243
39	0xbd56e39d	-0.052463163
40	0x3cee4532	0.02908573
41	0x3d348e50	0.044081032
42	0xbd698fac	-0.05702178
43	0xbb9a49e5	-0.004708516
44	0x3d95a845	0.073074855
45	0x3d80b76a	0.062849835
46	0xbbd49546	-0.0064875213
47	0x3d5d6797	0.05405387
48	0x3d0ad69c	0.033896074
49	0xbc68782e	-0.014188809
50	0x3da158fe	0.07878302
51	0x3d1ae4ef	0.037815984
52	0x00000000	0.0
53	0x3d6f3023	0.058395516
54	0x00000000	0.0
55	0x3d9e6c9c	0.07735559
56	0xbc0a7693	-0.008451122
57	0x3c688722	0.014192374
58	0x3d4cbb58	0.049983352
59	0x3d36f62e	0.04466837
60	0xbc6b50b9	-0.0143625075
61	0x3c1464ab	0.009057204
62	0x3d01e68f	0.03171402
63	0x3d007a7a	0.031366803
64	0x3afacec5	0.0019135108
65	0x3c2a53e9	0.010395982
66	0x3dd32284	0.10309318
67	0xbc665b95	-0.014059921
68	0x00000000	0.0
69	0x3d764f58	0.06013426
70	0x3d0a5cac	0.033779785
71	0x3c7ee2dc	0.015557017
72	0x3cfecee2	0.031104509
73	0x3d906a5a	0.07051535
74	0xbd627494	-0.05528696
75	0x3e2f29d5	0.17105801
76	0x3d9aeba9	0.0756448
77	0x3cdae6d3	0.026721394
78	0xbc0e68ec	-0.0086920075
79	0x00000000	0.0
80	0xbca1f722	-0.019771162
81	0x3d3c5c23	0.045986306
82	0x3aad4cf1	0.0013221783
83	0x3da0c9d6	0.07850997
84	0x3dc36bd9	0.09542055
85	0xbc2d7c3a	-0.0105887
86	0x3ce31dad	0.027724111
87	0xbbea5dd3	-0.007152298
88	0x3b1361f1	0.0022488798
89	0xbbc261da	-0.005932075
90	0xbc21d2ef	-0.009876951
91	0xbc6078c0	-0.013700664
92	0xbc86a5d3	-0.016436493
93	0x3d27e72c	0.040991947
94	0x3c177c38	0.009245925
95	0xbb7bd720	-0.0038427785
96	0xbcff4901	-0.03116274
97	0x3d7758f5	0.06038757
98	0x00000000	0.0
99	0x3e2f5c90	0.17125154
100	0x00000000	0.0
101	0x3d8dc6f2	0.069227114
102	0x3dad0c3b	0.084495984
103	0xbcd2c7bc	-0.025730006
104	0x3d005fe9	0.031341467
105	0xbc930c53	-0.017950213
106	0xbbb47064	-0.005506562
107	0x3da035dc	0.07822773
108	0x3d1f08eb	0.038826864
109	0x3c28e15a	0.010307634
110	0x3d990772	0.07472123
111	0x00000000	0.0
112	0x3d8c4abc	0.06850192
113	0xbd1ffcd0	-0.03905946
114	0x3cbdee29	0.023184853
115	0xbc97ce49	-0.018530982
116	0xbcc5094c	-0.024052285
117	0x3b4e7331	0.0031501765
118	0x3da30138	0.07959217
119	0xbc982e18	-0.018576667
120	0x3ccdec7b	0.025137177
121	0x3c5fdae6	0.013663029
122	0x3d3c2d29	0.045941506
123	0x3c83acb6	0.016073566
124	0x3e1a97c3	0.15096955
125	0x3d73c740	0.05951619
126	0xbcd67e4c	-0.02618327
127	0x3acb80ba	0.0015526034

conv3.lin.weight f4 [128, 64]
0	0xbd83d8fc	-0.06437871
1	0x3b5fdea6	0.0034159808
2	0x3d91ef05	0.071256675
3	0xbe8f760f	-0.2801976
4	0x3d38b441	0.04509378
5	0xbd01afac	-0.031661674
6	0x3b837a26	0.004012364
7	0xbdce5aa9	-0.10075886
8	0xbd13d70b	-0.036093753
9	0xbc8516a5	-0.01624615
10	0xbc5791c4	-0.013157312
11	0x3e17d6b1	0.14827992
12	0x3e7c4962	0.24637368
13	0xbe765462	-0.24055627
14	0x3dc15854	0.094406754
15	0xbe9aeb0d	-0.30257455
16	0x3bbcee44	0.005765708
17	0x3d8df2d2	0.0693108
18	0xbd92eabc	-0.07173678
19	0xbe909783	-0.28240594
20	0x3d018489	0.031620536
21	0x3e8ded62	0.2772017
22	0xbce924d9	-0.028459953
23	0xbe9cd56b	-0.30631575
24	0x3dcbb17b	0.09945961
25	0x3e6982a3	0.2280374
26	0x3df0e96d	0.117632724
27	0x3dcf0b13	0.10109534
28	0xbc88cfbf	-0.016700624
29	0xbe174d2c	-0.14775532
30	0xbe1b3bee	-0.1515958
31	0xbc9d7d6e	-0.019224849
32	0x3e3d7d0b	0.18504731
33	0x3cac8697	0.021060271
34	0xbd4babc6	-0.049724363
35	0x3ded4a92	0.11586489
36	0xbcde42ac	-0.027131401
37	0x3e928054	0.28613532
38	0x3e80d4d3	0.25162372
39	0x3e7800b8	0.24219024
40	0x3e3f2024	0.18664604
41	0xbcaed016	-0.021339457
42	0x3b04f0a1	0.0020285028
43	0x3d35106c	0.044205114
44	0x3d06679a	0.032813646
45	0xbe8e6208	-0.27809167
46	0x3e45c4a3	0.19313292
47	0x3e85808a	0.2607463
48	0xbd654df8	-0.05598256
49	0xbdcfdb5d	-0.10149262
50	0x3c85fd2d	0.016356075
51	0xbe49fa6a	-0.19724432
52	0x3d827039	0.06369061
53	0xbd7d4654	-0.06183465
54	0x3df3ea9c	0.119099826
55	0x3e57bfb6	0.21069226
56	0x3e69fa77	0.22849451
57	0x3d75930b	0.059954684
58	0xbd9362fc	-0.07196614
59	0x3e180069	0.14843906
60	0xbe0c9456	-0.1372846
61	0x3dd1bbd0	0.102409005
62	0x3e3066b7	0.17226683
63	0xbe96c871	-0.294498
64	0xbed058df	-0.40692803
65	0x3d9f625c	0.077824324
66	0xbdb097c5	-0.08622698
67	0xbdd07abf	-0.10179662
68	0xbe201e71	-0.15636612
69	0x3e34b876	0.17648491
70	0xbe70222a	-0.23450533
71	0xbe039e9f	-0.12853478
72	0xbd6992b5	-0.057024676
73	0x3e2a93d7	0.16657959
74	0x3e1f72cf	0.1557114
75	0x3ea41d8a	0.32053787
76	0xbd1cb9a5	-0.038262982
77	0xbe366dd3	-0.17815332
78	0xbeadc155	-0.33936563
79	0xbe361329	-0.17780747
80	0x3e56e52a	0.20985857
81	0xbd882657	-0.06647938
82	0x3dc5df4f	0.09661733
83	0xbe1723a5	-0.14759691
84	0x3e220fff	0.15826415
85	0xbda1f81e	-0.07908653
86	0x3e2223bb	0.15833943
87	0xbe60b83d	-0.21945281
88	0x3d5691db	0.052385192
89	0x3e53202c	0.20617741
90	0xbdeffb17	-0.117178135
91	0xbdfcd7a7	-0.1234582
92	0xbcfbd112	-0.03073934
93	0xbda81f91	-0.08209146
94	0xbe1eb26f	-0.15497755
95	0x3e807066	0.25085753
96	0x3e012585	0.12611969
97	0xbd8158dd	-0.063157775
98	0x3d98a004	0.074523956
99	0x3dd8d008	0.10586554
100	0x3dfebb4b	0.12438067
101	0x3e6b1baf	0.22959779
102	0xbec99c5e	-0.3937711
103	0xbc5e0f35	-0.01355343
104	0x3e4544ee	0.19264576
105	0x3d111748	0.035422593
106	0xbe0de201	-0.13855745
107	0x3e01fb24	0.12693459
108	0x3cbfb6bd	0.023402566
109	0xbe2b5855	-0.16732915
110	0x3e350f9e	0.17681739
111	0x3e153eb2	0.14574698
112	0x3deeccee	0.11660181
113	0xbe015cbb	-0.1263303
114	0x3e3e934c	0.18610877
115	0x3e52ce78	0.20586574
116	0x3e9905f8	0.29887366
117	0xbe3fa0c2	-0.18713668
118	0x3d1dc96e	0.038522176
119	0x3e55db4a	0.20884433
120	0x3e503560	0.20332861
121	0x3c63f5d1	0.013913588
122	0xbdb5044f	-0.088387124
123	0x3c2b7e23	0.010467085
124	0x3d970529	0.07374031
125	0x3e00cdd0	0.12578511
126	0x3ce2fa0c	0.027707122
127	0xbe177036	-0.14788899
128	0xbe2bc8eb	-0.16775863
129	0xbdc9a7f1	-0.098464854
130	0x3e081fe6	0.13293418
131	0xbe93a6ce	-0.288382
132	0xbde74576	-0.112925455
133	0xbd235ee0	-0.0398854
134	0xbe3e6392	-0.1859267
135	0xbd8b064a	-0.06788309
136	0xbd2fc7f3	-0.042915296
137	0xbc984f62	-0.01859254
138	0xbd8164a7	-0.06318026
139	0x3e7457e9	0.2386166
140	0x3e6b19e7	0.229591
141	0xbca81a0e	-0.020520236
142	0xbc008b31	-0.007845686
143	0xbe52a1f5	-0.20569594
144	0x3e2f1741	0.17098714
145	0x3e0c76ae	0.13717148
146	0x3e131f5a	0.14367428
147	0xbe298533	-0.16554718
148	0xbe153f6a	-0.14574972
149	0x3e282726	0.16421184
150	0x3c0207c2	0.00793642
151	0xbde4981d	-0.11161826
152	0x3e48d23a	0.19611445
153	0x3d8c3381	0.06845761
154	0x3da36ad4	0.0797936
155	0xbd34c663	-0.04413451
156	0x3d5b3f4d	0.053527165
157	0xbd90b56f	-0.07065856
158	0x3e2ca118	0.16858327
159	0x3e5f49f3	0.21805553
160	0x3e336743	0.1751986
161	0x3da060b3	0.07830944
162	0xbd97fadd	-0.07420895
163	0xbd231c85	-0.03982212
164	0xbe2ceb24	-0.16886574
165	0x3e36ec09	0.17863478
166	0x3d8e43f1	0.069465525
167	0xbd8bcc88	-0.068261206
168	0x3e26acc3	0.16276841
169	0xbd324a1d	-0.04352771
170	0x3e2337a9	0.15939201
171	0x3e8cbc1c	0.27487266
172	0x3da57268	0.08078462
173	0xbde5a8d1	-0.1121384
174	0x3e7787a8	0.24172843
175	0x3e340961	0.17581703
176	0x3dd95056	0.10611026
177	0xbdd1be56	-0.10241382
178	0x3e878ddb	0.26475415
179	0x3c4bc344	0.012436692
180	0xbcc36b08	-0.023854747
181	0xbde84de4	-0.113429815
182	0xbd943ab8	-0.07237762
183	0x3e08f6a3	0.13375334
184	0x3dac76c5	0.08421091
185	0x3e0b035d	0.13575502
186	0x3cc50593	0.02405051
187	0x3dd4317a	0.103609994
188	0xbe2655bd	-0.16243644
189	0x3e25293c	0.16129011
190	0x3e359bc3	0.177352
191	0xbe05dd05	-0.13072594
192	0x3e3df0a9	0.18548836
193	0xbdd8bd19	-0.105829425
194	0xbd3a17f9	-0.04543302
195	0xbeb8004e	-0.35937732
196	0xbd429f26	-0.047515057
197	0xbdfb1bf0	-0.12261188
198	0xbe0d2a30	-0.13785625
199	0x3df14fda	0.117828086
200	0xbccc8cd8	-0.024969503
201	0x3e2d85b4	0.16945535
202	0xbe80abfa	-0.25131208
203	0x3d801110	0.062532544
204	0xbe15100d	-0.14556904
205	0x3e009914	0.12558395
206	0xbda7e2d5	-0.08197562
207	0x3e421c56	0.18956122
208	0xbdef1256	-0.11673419
209	0x3e293c55	0.16526921
210	0xbe082144	-0.1329394
211	0xbe775587	-0.2415372
212	0xbdd190d9	-0.102327056
213	0xbd032881	-0.03202105
214	0x3c0b2728	0.008493222
215	0xbda2e150	-0.07953131
216	0xbe113f99	-0.14184417
217	0xbdc48ea0	-0.09597516
218	0xbd501f3c	-0.050811037
219	0x3dc7e474	0.09760371
220	0xbdaa1335	-0.08304445
221	0xbdb6dc89	-0.089287825
222	0xbddb6feb	-0.10714706
223	0xbe1266a6	-0.1429697
224	0xbdab368e	-0.08360015
225	0x3cecdcab	0.028913816
226	0xbc931ce2	-0.017958108
227	0x3ddddfae	0.10833679
228	0x3d0b1d3e	0.033963434
229	0x3ad27180	0.0016055554
230	0x3e39bcf6	0.18138489
231	0xbe48501f	-0.19561814
232	0xbdaa063b	-0.083019696
233	0xbca77a4c	-0.020444058
234	0x3e0eb189	0.13934912
235	0xbe45d3b7	-0.19319044
236	0xbdd33a42	-0.10313846
237	0xbd3e98e5	-0.04653253
238	0x3e098b3a	0.13432017
239	0x3ddb3434	0.10703316
240	0xbe03b233	-0.12860946
241	0x3e15d7c2	0.14633086
242	0xbe6ff059	-0.23431529
243	0x3d769b88	0.06020692
244	0xbdfeee70	-0.12447822
245	0x3e275bee	0.16343662
246	0xbda6a421	-0.08136774
247	0xbe0352e8	-0.12824595
248	0xbd38f389	-0.04515413
249	0xbe8ebc97	-0.27878258
250	0xbe294530	-0.16530299
251	0x3d6b9f53	0.05752499
252	0x3e326eb3	0.17425041
253	0xbe51837e	-0.20460317
254	0xbe4eb0c3	-0.20184617
255	0x3e2c8aba	0.16849795

conv3.lin_edge.weight f4 [128, 2]
0	0xbe86f4e5	-0.26358715
1	0xbef89eef	-0.48558757
2	0x3e2218d3	0.15829782
3	0xbdb1f07a	-0.086884454
4	0xbda4ee0e	-0.08053218
5	0xbea0e137	-0.31421825
6	0xbd875740	-0.066084385
7	0xbe67d7a5	-0.22640856
8	0x3cabb53e	0.020960446
9	0x3eb9a0fc	0.36255634
10	0x3dba85d9	0.09107561
11	0x3eaad9fc	0.33369434
12	0x3e7a6ade	0.24454829
13	0x3f047afe	0.5175017
14	0x3e10bdb7	0.1413487
15	0x3ea95462	0.3307219
16	0xbdb4c41a	-0.08826466
17	0xbef12b2e	-0.47103256
18	0x3e92b73a	0.28655416
19	0x3e88b40a	0.2669986
20	0x3e53811d	0.20654722
21	0x3e68f43f	0.22749422
22	0xbe334410	-0.17506433
23	0x3c75a721	0.01499346
24	0xbe80a620	-0.25126743
25	0xbdf23749	-0.11826951
26	0x3e524f88	0.20538151
27	0x3f01e665	0.5074218
28	0x3e236fa6	0.15960559
29	0xbe3746a4	-0.17898041
30	0x3d2a3eaa	0.041563667
31	0x3ce39169	0.027779298
32	0xbde28ac1	-0.110616215
33	0x3ecd1e28	0.4006207
34	0xbcf2df56	-0.02964751
35	0x3eba0234	0.36329806
36	0x3d173166	0.036912344
37	0xbf02e0e0	-0.5112438
38	0x3dfc46d6	0.123181984
39	0xbeb2cce3	-0.3492194
40	0xbe48eafb	-0.19620888
41	0xbec7dc22	-0.39035136
42	0xbe11151e	-0.14168212
43	0x3e95823c	0.29200923
44	0xbdca03a4	-0.09863976
45	0x3ebed1e5	0.37269512
46	0x3e38d21b	0.18048899
47	0x3e818a97	0.25301048
48	0x3e76bfa1	0.24096538
49	0x3e8e3236	0.27772683
50	0xbdca2144	-0.09869626
51	0xbea03049	-0.3128684
52	0x3e1d6d92	0.15373829
53	0x3eba7c12	0.36422783
54	0xbdc887d3	-0.097915314
55	0x3ede8d86	0.4346735
56	0x3e419429	0.18904175
57	0x3e8450e4	0.25842965
58	0x3e4c72d0	0.19965672
59	0x3ed21dd3	0.4103838
60	0xbd596750	-0.053077042
61	0xbe70a653	-0.23500948
62	0x3de4b58e	0.11167441
63	0x3f03d192	0.51491654
64	0x3b24a78b	0.0025124277
65	0x3e59bae5	0.21262701
66	0x3e577966	0.21042404
67	0x3de57f64	0.112059385
68	0xbaf2d486	-0.0018526472
69	0x3e97c342	0.29641157
70	0x3e074e7d	0.13213535
71	0x3eb78f71	0.35851625
72	0xbdb08ada	-0.08620234
73	0x3e1414bb	0.14461033
74	0xbe392b2d	-0.18082877
75	0xbed03adc	-0.40669906
76	0xbdefedc8	-0.11715275
77	0xbea41a58	-0.3205135
78	0x3e123f94	0.14282066
79	0xbefc7289	-0.49306133
80	0xbddb6898	-0.10713309
81	0x3eb7e2b5	0.3591515
82	0x3e009709	0.12557615
83	0x3ec9c8f6	0.39411134
84	0xbe44f77c	-0.19235033
85	0xbee9226f	-0.45534083
86	0xbe5f3743	-0.21798424
87	0xbef0a67f	-0.47002026
88	0x3d93e6dd	0.07221768
89	0xbef3ea9c	-0.4763993
90	0xbd673d0a	-0.056454696
91	0x3eef4ecf	0.46739814
92	0x3de0e627	0.10981398
93	0xbeb2a97c	-0.3489493
94	0x3d967361	0.073462255
95	0x3e85e296	0.26149434
96	0xbe87f736	-0.26555794
97	0xbeb6a325	-0.35671344
98	0xbdaf4f2c	-0.08560023
99	0x3efdcf9a	0.4957245
100	0x3e0aef13	0.13567762
101	0x3eac1953	0.3361307
102	0xbe8a00da	-0.26953775
103	0xbecdb2c3	-0.40175447
104	0x3d60baec	0.054865763
105	0x3e941336	0.28920907
106	0xbdfd66a8	-0.12373096
107	0x3d8bc074	0.06823817
108	0xbe8184de	-0.25296682
109	0xbeebf7c5	-0.4608747
110	0xbe67afb6	-0.22625622
111	0xbe9963f1	-0.29959062
112	0x3e1bcdd5	0.15215237
113	0xbe8af017	-0.271363
114	0xbe7a39c7	-0.24436103
115	0xbef3d65b	-0.47624478
116	0x3e40fe34	0.18846971
117	0x3eea6bdc	0.45785415
118	0xbdaf0474	-0.08545771
119	0xbd946456	-0.072457
120	0x3c8cfb1d	0.017209584
121	0xbefb22e1	-0.49050048
122	0xbe7430f1	-0.23846795
123	0xbee2f71a	-0.4432915
124	0x3d1c0d3d	0.038098563
125	0x3eedd6f7	0.46453068
126	0x3d93487f	0.07191562
127	0x3f05c0f4	0.5224755
128	0xbe24ae94	-0.16082221
129	0x3e13df36	0.14440617
130	0x3e4f9230	0.2027061
131	0x3e6946ef	0.22780965
132	0xbe4b03a1	-0.19825603
133	0xbec32052	-0.38110596
134	0xbd9f8cf5	-0.07790557
135	0x3d5e6a21	0.05430043
136	0x3e50f34f	0.20405315
137	0x3edb4e79	0.42833307
138	0x3e05e9f9	0.13077535
139	0xbeedff3a	-0.46483785
140	0x3e8d57ff	0.27606198
141	0x3f019943	0.50624484
142	0xbe37d824	-0.17953545
143	0xbef78083	-0.48340234
144	0xbd2adea9	-0.04171625
145	0x3edd82b8	0.43263793
146	0xbcc9f562	-0.02465314
147	0x3f02e3a6	0.51128614
148	0xbd283bc4	-0.041072622
149	0xbef0953c	-0.46988857
150	0xbe9958f0	-0.29950666
151	0xbee7693e	-0.4519748
152	0xbe15460b	-0.145775
153	0x3eed5b0f	0.46358535
154	0x3dbf6d50	0.093470216
155	0x3efa5677	0.48894092
156	0xbd94d159	-0.072664924
157	0xbec221c6	-0.37916392
158	0xbda66bed	-0.08126054
159	0x3ecd517c	0.4010123
160	0x3ca61784	0.020274885
161	0xbed78705	-0.420952
162	0x3c8ca6ca	0.017169375
163	0xbe88f884	-0.26752102
164	0xbd9bdfcf	-0.076110475
165	0xbea3e6ba	-0.32011968
166	0xbe23efcc	-0.16009444
167	0x3ead110c	0.33802068
168	0x3e06c9ee	0.13162968
169	0x3e8bc0af	0.27295443
170	0xbe92ac3d	-0.28647032
171	0xbed90025	-0.42382923
172	0xbe6ab4fe	-0.22920606
173	0xbe7029b5	-0.2345341
174	0x3d91ddcc	0.071223825
175	0x3ed7d8c9	0.4215758
176	0x3e87ba8d	0.26509514
177	0x3ebace09	0.36485317
178	0xbddd1541	-0.107950695
179	0x3ed4c112	0.4155355
180	0x3e4cd622	0.2000356
181	0x3e4b0076	0.19824395
182	0xbdf079da	-0.11741991
183	0x3eb464eb	0.35233244
184	0x3dda870b	0.10670289
185	0x3d20999b	0.03920899
186	0xbaa18187	-0.0012321927
187	0x3e74e98b	0.23917215
188	0x3e501e28	0.20324004
189	0x3ed728b4	0.42023242
190	0x3bb49325	0.005510705
191	0xbea9da12	-0.33174187
192	0x3e4b9c61	0.19883873
193	0x3ed022a4	0.4065143
194	0x3d618e0d	0.05506711
195	0xbee962fb	-0.4558333
196	0x3c950258	0.018189594
197	0xbf038b24	-0.51384187
198	0xbdacc59e	-0.0843613
199	0x3ecf4a82	0.40486532
200	0xbd16e036	-0.036834918
201	0x3f030257	0.51175445
202	0xbd0e69f2	-0.034769006
203	0x3ed44eab	0.4146627
204	0xbe240a77	-0.16019617
205	0xbed42787	-0.41436407
206	0x3d3dd08d	0.046341468
207	0xbedcdf22	-0.43138987
208	0xbdfd6b7c	-0.12374017
209	0xbea6118e	-0.32435268
210	0x3e909fdc	0.28246963
211	0x3e5509ad	0.20804472
212	0x3dbe4bef	0.09291827
213	0xbef5355a	-0.47892267
214	0x3e911d9a	0.28342897
215	0x3e67ee5e	0.22649524
216	0x3dc8f12a	0.098116234
217	0xbe498824	-0.1968084
218	0xbe84aa71	-0.25911286
219	0xbed19bc4	-0.40939152
220	0x3e07eccf	0.13273929
221	0xbe1e6eb3	-0.15471916
222	0x3db50aef	0.08839976
223	0xbeb9888e	-0.36236995
224	0xbd2b5de2	-0.04183758
225	0xbecca24a	-0.39967567
226	0x3e3eeb2d	0.186444
227	0x3eecdaf6	0.46260804
228	0xbac1fb45	-0.0014799616
229	0xbed185a5	-0.40922275
230	0x3e7f0b4e	0.24906656
231	0x3e39f643	0.18160348
232	0x3d522068	0.051300436
233	0xbedc7a39	-0.43061998
234	0x3db3d21c	0.087803096
235	0xbef4fe48	-0.4785025
236	0xbe9339a8	-0.28754926
237	0xbecd0a37	-0.40046856
238	0xbe4ce709	-0.20010008
239	0xbec6889d	-0.38776103
240	0xbc9976c2	-0.018733386
241	0xbd09eaf0	-0.03367132
242	0xbd5fdff3	-0.054656934
243	0xbebc50ea	-0.36780483
244	0x3e2b6df7	0.16741167
245	0xbe982c38	-0.29721236
246	0xbe3b1640	-0.18270206
247	0xbe989e7c	-0.29808414
248	0xbe429c4e	-0.19004938
249	0xbef72eb8	-0.4827783
250	0xbd48c984	-0.049020305
251	0xbee2b4f9	-0.44278696
252	0xbd239b8a	-0.039943255
253	0xbed78469	-0.42093208
254	0x3d9227d8	0.07136506
255	0xbeee49fe	-0.46540827
